…
103让我们从之前的两个句子中选择位置索引 5 进行掩码。随时回到这里改变索引，看看结果会如何变化！masked_index = 5接下来，我们将应用掩码并验证它是否出现在句子序列中。indexed_tokens[masked_index] = tokenizer.mask_token_id
tokens_tensor = torch.tensor([indexed_tokens])
tokenizer.decode(indexed_tokens)
&#39;[CLS] I understand equations, [MASK] the simple and quadratical. [SEP] What kind of equations do I understand? [SEP]&#39;然后，我们将加载用于预测缺失单词的模型：modelForMaskedLM。masked_lm_model = torch.hub.load(&#39;huggingface/pytorch-transformers&#39;, &#39;modelForMaskedLM&#39;, &#39;bert-base-cased&#39;)就像使用其它 PyTorch 模块一样，我们可以检查其架构。masked_lm_model
BertForMaskedLM(
  (bert): BertModel(
    (embeddings): BertEmbeddings(
      (word_embeddings): Embedding(28996, 768, padding_idx=0)
      (position_embeddings): Embedding(512, 768)
      (token_type_embeddings): Embedding(2, 768)
      (LayerNorm): LayerNorm((768,), eps=1e-12, elementwise_affine=True)
      (dropout): Dropout(p=0.1, inplace=False)
    )
    (encoder): BertEncoder(
      (layer): ModuleList(
        (0-11): 12 x BertLayer(
          (attention): BertAttention(
            (self): BertSelfAttention(
              (query): Linear(in_features=768, out_features=768, bias=True)
              (key): Linear(in_features=768, out_features=768, bias=True)
              (value): Linear(in_features=768, out_features=768, bias=True)
              (dropout): Dropout(p=0.1, inplace=False)
            )
            (output): BertSelfOutput(
              (dense): Linear(in_features=768, out_features=768, bias=True)
              (LayerNorm): LayerNorm((768,), eps=1e-12, elementwise_affine=True)
              (dropout): Dropout(p=0.1, inplace=False)
            )
          )
          (intermediate): BertIntermediate(
            (dense): Linear(in_features=768, out_features=3072, bias=True)
            (intermediate_act_fn): GELUActivation()
          )
          (output): BertOutput(
            (dense): Linear(in_features=3072, out_features=768, bias=True)
            (LayerNorm): LayerNorm((768,), eps=1e-12, elementwise_affine=True)
            (dropout): Dropout(p=0.1, inplace=False)
          )
        )
      )
    )
  )
  (cls): BertOnlyMLMHead(
    (predictions): BertLMPredictionHead(
      (transform): BertPredictionHeadTransform(
        (dense): Linear(in_features=768, out_features=768, bias=True)
        (transform_act_fn): GELUActivation()
        (LayerNorm): LayerNorm((768,), eps=1e-12, elementwise_affine=True)
      )
      (decoder): Linear(in_features=768, out_features=28996, bias=True)
    )
  )
)找到标有 word_embeddings 的部分就是 BERT 为每个 token 学习到的嵌入。embedding_table = next(masked_lm_model.bert.embeddings.word_embeddings.parameters())
embedding_table
Parameter containing:
tensor([[-0.0005, -0.0416,  0.0131,  ..., -0.0039, -0.0335,  0.0150],
        [ 0.0169, -0.0311,  0.0042,  ..., -0.0147, -0.0356, -0.0036],
        [-0.0006, -0.0267,  0.0080,  ..., -0.0100, -0.0331, -0.0165],
…
